data.pth (torch, 11562 bytes, 6 tensors)

l1.weight f4 [8, 155]
00000000: 07d1 a0bd d821 96bd 40cb c6bc ac79 003e
00000010: 603a 8b3e c322 5c3e f2be 883e ec23 1fbf
00000020: a7e8 553e 5f22 113f ad46 1f3f e423 cbbf
00000030: aa9e fdbd 5b0d b43f f4f0 853f 7410 093f
00000040: dbbd c63f dc75 353f 6029 473f 1c07 d13f
00000050: c880 2a3e 54e9 eb3e 5708 b23f 5771 fc3d
00000060: 5a57 62bf 3585 f13c aa03 51be bd06 aabf
00000070: d702 1d3f 8262 01bf 10a0 0cbd 94c2 4d3f
00000080: e914 0abe e892 0540 e046 11bd f43f 433f
00000090: 9920 7c3f 2f0d 183f 8f68 35bf 1b2f 983e
000000a0: fcb8 16be 43c9 c33d e7b5 c13e 2850 8b3f
000000b0: a680 8d3f 6433 7c3e 9425 dbbe a1bd 263f
000000c0: da40 353f c424 583f cba7 d13e 95c5 b43e
000000d0: 87e3 c33c 3838 18bf 034a bcbe 9886 31be
000000e0: 67d4 b73d 646b 353d f36c 9f3f bde8 2c3f
000000f0: f6c4 a9bf 9b63 0abf cf2d 4a3e d717 a53f
00000100: f000 493f 9919 ddbd 45ee 543f e744 363f
00000110: 1c8f ccbb 2f26 523f b55e 993d f1c9 2c3e
00000120: 809c b2bd ec6a 1c3f e357 5cbf e0cb 923e
00000130: c947 723e 3646 843e 6580 113f f8e3 2fbf
00000140: 2044 d03e 98f6 3b3f dfd6 ea3e f7f9 853f
00000150: 634d 52bf 6fcb 85be a096 85be 1f6e 46bf
00000160: da55 fabd c04c 9d3e 12e1 123e cd8a c8bb
00000170: f5e3 a43f f1e3 a03e 52bf d63e 94c0 1cbd
00000180: db64 20be 6eea a83c 9c3c a33f 8d67 253f
00000190: 97f9 4b3f cac6 833f bbbe 183e 2e9a 313e
000001a0: 0b76 ffbd 7986 1abf 6a91 aa3f c076 1dbf
000001b0: 1eff 45bf 9b0a 143e f843 a43f b6e7 93bd
000001c0: 0261 55be 4bb8 453e 6eef 2fbe 0faa 87bf
000001d0: 26dd f1be 2613 11bf 231a 363f 8376 283f
000001e0: d5a0 4abf c5ed 883e d4db 2a3e b59d 3a3e
000001f0: 95fa ea3d a477 e13d 3f7d e33d 75aa e13d
00000200: ee09 d63e 2fbb 523f c3ed 24bf 2bc1 043f
00000210: 7aba 833e 3b39 b23e 350a cdbe b0da b6bf
00000220: 968b 3fbf 5b06 22bf 61e2 23be 33b0 8c3e
00000230: 3cc6 1a3f 5165 403e 6539 1cbe f44d 6b3e
00000240: 43ab 573e 9b60 893e 313a 9c3f e64a ac3e
00000250: 452c 633c 2dab 853f 5bed 5d3f 655f 4a3f
00000260: 7488 203e 8577 eb3e bf7a 5e3f 8ece 173d
00000270: 390b 4f3e a8a5 283e 517a ab3e 4091 3dbe
00000280: 7659 5fbe 37d1 413e 7be1 6c3f 6bf0 09be
00000290: 3793 8abc 514f ef3e 750b a13e f6d9 933e
000002a0: 9bb1 ef3f 6a86 0f3f 1f1d 543f 9ae1 f63e
000002b0: 9554 b23e 1862 343f f692 0340 610d 453e
000002c0: 5559 8d3f 9ad3 7abf 31c5 efbd 2b48 10bf
000002d0: 8a3d 4f3f d0c2 613e 9830 87bf 02ad 3c3f
000002e0: d19d 023e 4248 b13e 8938 993e 4b04 49bf
000002f0: 4839 923f f6bd 993e 62d3 203f 4693 863e
00000300: 05da 193f ec13 9e3f f1aa 013f f406 98bd
00000310: 451b b13e c42b 95bf 1aae 57be 29be b63d
00000320: c38e c83e 6bea fc3d faec cdbe d224 253f
00000330: 6c01 853f 7545 a43f 6875 083f b782 52bd
00000340: 97d3 543f 9e27 f03f f20f c4be ef3b 963e
00000350: cd3e 2b3f 948c b8bf 6c6c 173f ccc6 9bbf
00000360: c811 4a3e 7b81 373f 99be 793f 79e8 5c3f
00000370: 3155 45bc b4c9 4d3f 6d7a 683f 5b26 f33e
00000380: 81db 753f 0c90 ea3d 0ae8 503e 44e4 0c3f
00000390: 06cc 433f 2278 0fbf b159 073f fe76 443f
000003a0: f36d 8d3e a76a bbbe ee95 983f a7ae 5b3f
000003b0: 473e a73e f7f7 8a3f 94dc b03f 73d1 0dbf
000003c0: 618b 773f 0fb2 583f 558c debe 1d85 3fbf
000003d0: 1ba5 f73d 7641 523d 96eb 693e 96af 803f
000003e0: 91a6 c13e a2de 193f b30e ac3e 502f 05be
000003f0: 38f8 0e3f dca3 503f 6fca 443f 7205 753f
-0.07852369 -0.07330674 -0.024266839 0.12546414 0.27192974 0.21497636 0.2670818 -0.6216419
0.20889531 0.5669307 0.6221722 -1.5870328 -0.123837784 1.4066576 1.0464158 0.5354073
1.5526689 0.70882964 0.7779751 1.6330295 0.16650689 0.46076453 1.3908795 0.12326305
-0.8841454 0.029482463 -0.20411554 -1.3283306 0.6133246 -0.50540936 -0.034332335 0.8037503
-0.13484539 2.0870914 -0.035467982 0.7626946 0.9848724 0.59395117 -0.7086267 0.2972344
-0.14719003 0.09559872 0.37834093 1.0883837 1.1054885 0.24628979 -0.42802107 0.651331
0.7080208 0.844311 0.40948328 0.35306993 0.023912204 -0.59460783 -0.36775216 -0.173365
0.089760594 0.04429187 1.2455124 0.6754263 -1.3263233 -0.54058236 0.19744037 1.28979
0.78517056 -0.10795898 0.8317607 0.71198887 -0.006242646 0.82089514 0.07488767 0.1687391
-0.08721256 0.6110065 -0.86071604 0.2867117 0.23660196 0.25834817 0.5683654 -0.6870723
0.40676975 0.7342315 0.4586706 1.0466908 -0.8214933 -0.2613177 -0.2609148 -0.7751178
-0.12223406 0.30722618 0.1434367 -0.006120062 1.2882067 0.31423905 0.4194284 -0.038269594
-0.15663473 0.020619597 1.2752872 0.6461113 0.7967772 1.0295041 0.14916508 0.17343971
-0.12473687 -0.6036144 1.3325627 -0.61509323 -0.773424 0.1445717 1.2833242 -0.0722193
-0.20837787 0.19308583 -0.17181179 -1.0598773 -0.47239035 -0.56669843 0.7113363 0.65805835
-0.7915166 0.26743904 0.1668542 0.18224223 0.11473576 0.11009148 0.11107873 0.1101884
0.4180445 0.8231687 -0.64425296 0.5185725 0.25728208 0.34809288 -0.4004685 -1.4285488
-0.74822366 -0.6329095 -0.16004325 0.2747818 0.6045873 0.18788649 -0.1525627 0.22978956
0.21061425 0.26831517 1.2205259 0.33650893 0.013865535 1.0442864 0.866903 0.7905181
0.15677053 0.45989624 0.86906046 0.03706222 0.20219125 0.16469443 0.33491758 -0.1851244
-0.2181147 0.18927465 0.92531556 -0.13470618 -0.0169159 0.467402 0.31454054 0.28877228
1.8726076 0.56064475 0.82856935 0.48218995 0.34830156 0.7046218 2.0558448 0.19243385
1.1042887 -0.9797913 -0.11707533 -0.5636012 0.80953276 0.22046971 -1.0561705 0.7370149
0.12755515 0.3462544 0.29925945 -0.78522176 1.1423731 0.3002774 0.62822545 0.26284236
0.60098296 1.234983 0.5065146 -0.07423201 0.34591118 -1.1653981 -0.21062508 0.08922989
0.3917142 0.12349399 -0.4021986 0.6450931 1.0391059 1.2833697 0.5330415 -0.05139419
0.8313536 1.876209 -0.38293415 0.293426 0.668927 -1.4417901 0.59149814 -1.2170043
0.19733346 0.71681947 0.97556454 0.86292225 -0.012044237 0.803859 0.90811807 0.474902
0.9603806 0.11453256 0.20401016 0.55035806 0.7648319 -0.56042683 0.52871233 0.7674407
0.27622947 -0.36604807 1.1920755 0.85813373 0.326647 1.0856923 1.3817315 -0.5539772
0.9669705 0.84646696 -0.4346644 -0.7481249 0.12092038 0.05133196 0.22843775 1.0053585
0.37822393 0.60105336 0.33604965 -0.1300633 0.558475 0.8150003 0.7687139 0.95711434

l1.bias f4 [8]
00000000: 3f28 e33f b28e 2f40 dbf5 3340 1db8 1940
00000010: 5eff 2040 e1a2 0040 7b91 0740 daa9 4040
1.7746657 2.7430844 2.8118808 2.4018624 2.5155864 2.0099413 2.1182544 3.010367

l2.weight f4 [8, 8]
00000000: d15c 7d3e 8846 b5bf 9c35 1140 25cf 0f40
00000010: 41e9 5f3f 3d4f 253f 1b92 4440 c393 ce3e
00000020: 3fcb 58bf ca84 873f d3b3 4440 4000 4e3f
00000030: 03fd d13f c738 0040 2c30 2540 4164 8a3f
00000040: 92df ebbf b33d 9b3f bfe0 9c3f e004 2d40
00000050: 6625 753e 4763 e23d c026 80bf 504c f73f
00000060: 6b78 6a40 42f3 2540 983b 88be 237c 2340
00000070: db18 c9bf 04b0 c33f f0a4 5340 26f8 3440
00000080: a1ad 393f 4dc7 c13f 0917 2140 c14b a3be
00000090: 4232 6640 0796 d23f 1589 b2be 7c83 fc3f
000000a0: bf63 3d40 8c3d f23f 6ef1 693f 1381 2040
000000b0: d768 1940 feb2 23c0 0609 683f cc4c 643f
000000c0: 7f2b c63f 8d9e e63f 19a2 cb3f 7d1f 1040
000000d0: ef59 533f 938a ea3f fccb 8dbf 207a 8bbf
000000e0: e4b3 a83f 2a34 5d40 a54a 453d d3e8 7dbe
000000f0: 278f e43f 4e1a 1e40 6eb9 e23f a810 4140
0.24742438 -1.416215 2.268897 2.247018 0.8746529 0.64574033 3.0714176 0.40347108
-0.8468513 1.0587399 3.0734756 0.8046913 1.6405338 2.0034654 2.5810652 1.0811845
-1.8427603 1.2128204 1.2256087 2.7034225 0.23940048 0.11054092 -1.0011826 1.9320164
3.6635997 2.5929723 -0.26607966 2.5544517 -1.571071 1.5288091 3.306942 2.8276458
0.7253056 1.5138947 2.517031 -0.31893733 3.5968175 1.6452035 -0.3487021 1.9727626
2.959213 1.8925033 0.9138402 2.507878 2.397024 -2.5577998 0.9063877 0.8917968
1.5482024 1.8017136 1.5908843 2.251922 0.825591 1.832354 -1.1077876 -1.0896645
1.3179898 3.4563088 0.04816689 -0.24795847 1.7856187 2.4703555 1.7712839 3.0166416

l2.bias f4 [8]
00000000: b532 ae3f 060c 183f ad9e 473f f4bd 223f
00000010: 8bec 9e3f 2db9 a33f 033c b0bc 4557 673f
1.3609225 0.59393346 0.77976495 0.63571095 1.2415937 1.2790886 -0.02151299 0.9036754

l3.weight f4 [33, 8]
00000000: 0306 0bbf 797b 07be 0cbd 353f 1d54 89be
00000010: 4486 b0bf 295a 42c0 1562 31be 4380 88be
00000020: 825b 64c0 7a50 fdbe f9b0 02c0 fccc fdbe
00000030: 484e 0e3f 6281 a0bf 5731 d1be 31f0 973e
00000040: df7e f5bf 429c c2bf 79ce 0cbf c435 083c
00000050: 48f4 50bf 7e67 80bf 5bb6 5a3f c1af aabe
00000060: 51da 02bf 068c 66bf d17d fb3d b56a 9dbf
00000070: 3ec7 ccbe 2f9a 89bf d348 efbd bf3c adbe
00000080: eace e63d 545c 22c0 af46 24c0 30c2 8d3b
00000090: a45c 79bf 4d1b 313f 4f27 023f 66e9 9ebf
000000a0: 8c05 56bf f694 28be 632c 50c0 9c5f 2cbf
000000b0: 08d2 acbe e102 82bf f46d 853d db96 cfbe
000000c0: ca8e a63e 1da9 163d 4852 a7be bdf7 48c0
000000d0: 88f9 113e 1669 763d 2657 c9be 1675 c4bf
000000e0: 0b3a 27c0 4871 25c0 2d54 27c0 e295 263f
000000f0: a60a 1dbe e438 6cbf 2324 70bf d724 6f3f
00000100: 5a43 2dbf 9da9 5fbf 4282 3ec0 aaf1 07c0
00000110: c51c 2e3f f85d 003f dafa 923e 0c35 89bf
00000120: e49e 7f3e 59b8 4ebe 8722 1dc0 7718 17be
00000130: 74de 7bbf dba6 2bbd e54a dabf 1a76 93bf
00000140: 9619 02bb 1a71 44bd 2710 743f 1957 0ac0
00000150: 926b 91be eaf6 c33e 8cd0 bbbb f505 4ac0
00000160: ddce b0bf 2ac3 8dbc 0ed7 d4be 035c 043e
00000170: 3cc8 37bf 9ebe 27c0 acfa 09c0 c833 fc3e
00000180: 5f1f 123e da78 f4bf 9a75 6a3f f99a a8be
00000190: f4f0 12c0 a8fc 1d3f fa2a 973d 30fc c0bf
000001a0: 0269 26c0 6e58 edbf 44e7 02c0 4e1e 083f
000001b0: eeb3 cdbf 7b65 833f c1d4 bfbf a4f0 b13e
000001c0: e528 edbf e031 1ac0 8294 43c0 0234 1fbf
000001d0: 62a3 e03d 9f6b 223f 1f46 413e fa54 053a
000001e0: fcc2 3cbf cc35 18c0 e2ec 2ebe 5055 123f
000001f0: 39d1 4bc0 2ea3 153f 4052 30be 49ae acbd
00000200: f928 21be 304e d83e 45d5 fdbf 4129 0dc0
00000210: e209 b13e ed39 43c0 a365 eebd 8227 973e
00000220: 9693 233f a78c 4f3f 3e11 6abf 98bb 97bf
00000230: 88f0 3cbf 7215 06c0 75e7 b5bf 8e04 55bf
00000240: f4e1 b83e 2cb8 cf3d 1e1c 8a3e b684 d8be
00000250: 032a b9bf 0314 f1be aaab 00be 354a 32c0
00000260: 345a 00be 75ad a33e 3eca 9f3e 205d c3bf
00000270: 7569 b4be bd13 e6bf d932 003f 2fe6 d6bf
00000280: f4b9 c7be e31b 6cbe 18ca 1b3f 0e23 15bc
00000290: 6411 c2bf 9c0f 46bf a7d0 27c0 5ff6 1ebf
000002a0: 47fb 1a3f 269c 03bf 6e82 17be 0952 d53e
000002b0: c31c 31c0 0fe0 683d a324 eebf 68fb aebf
000002c0: 268a 1fbf bed5 c3bf fdfc 8b3e c1a8 dabf
000002d0: a0bc ffbe 4c0e 4e3f 4c65 dc3c b3cb 93bf
000002e0: 3c60 8ebe a683 82bf a97f e1bf c35e 423f
000002f0: e6ff e4bf 626d 1bbf 6bdd 41c0 920e e83e
00000300: d0be 2ec0 6904 04bf c1d7 80be 3237 1ac0
00000310: c7bd 7c3e c085 b63e e0d5 a2be a10e b33c
00000320: 6910 25c0 8f88 3abe b6fe 0d3f 837e e8bf
00000330: a669 7d3e 1ec1 2cc0 e068 533d 3dbe 273f
00000340: 44ac bebf 1a1d 76c0 b869 ab3e de27 04be
00000350: e846 2bbf ade7 3b3f f02b f63e 7f07 18bf
00000360: 2c58 3bbe c16f 71bf d8b3 9bbe 6571 adbc
00000370: 2984 a3bf b504 50bf 1487 37bd bdaf 8bbf
00000380: 616c ad3e 952f 03be ef6c 59c0 9070 20bd
00000390: 5325 2f3e d29d 17c0 411f 49c0 82f8 8a3e
000003a0: d5d3 52c0 7ebf d1bf 6638 9ebe abd3 e7bd
000003b0: ab87 1c3e 9395 ef3e 4b09 56c0 275d ae3e
000003c0: fcff ebbe 9664 89bd 5df3 533f 4459 3ac0
000003d0: 994b e83e 7565 e5bf ba41 c9be 2f18 d6be
000003e0: 6f41 5cbf 8e20 07c0 0852 663e db78 fabd
000003f0: 120b 39bf 34e6 223e 70c7 b9bf 2f32 a3be
-0.5430605 -0.13230695 0.7099159 -0.26821986 -1.3790975 -3.036753 -0.17322572 -0.26660356
-3.5680852 -0.4947546 -2.0420516 -0.49570453 0.555882 -1.2539485 -0.40857956 0.2967544
-1.9179343 -1.5203936 -0.5500255 0.0083136 -0.81622744 -1.0031583 0.854345 -0.33337215
-0.51114374 -0.9005741 0.12279857 -1.2298189 -0.3999576 -1.0750178 -0.11683812 -0.33835408
0.112699345 -2.5368853 -2.5668142 0.0043261275 -0.97406983 0.6918228 0.5084123 -1.2414978
-0.83602214 -0.16463074 -3.2527092 -0.6733339 -0.3375399 -1.0157129 0.065151125 -0.4054478
0.32530814 0.036782373 -0.32679963 -3.1401207 0.14255345 0.06015881 -0.393243 -1.5348232
-2.6129177 -2.5850391 -2.6145127 0.65072453 -0.15336093 -0.9227431 -0.9380514 0.9341559
-0.67680895 -0.87368184 -2.9767003 -2.124125 0.6801265 0.50143385 0.2870701 -1.0719314
0.24962956 -0.2018751 -2.4552324 -0.14755426 -0.9838631 -0.041907173 -1.7054106 -1.1520417
-0.0019851676 -0.047959425 0.95337147 -2.161566 -0.28402382 0.38274318 -0.005731648 -3.1566136
-1.381313 -0.017304976 -0.41570324 0.12925725 -0.7178991 -2.6210093 -2.1559248 0.49258256
0.1426978 -1.9099381 0.91585696 -0.32930735 -2.2959566 0.6171365 0.07381244 -1.5076962
-2.6001592 -1.8542612 -2.0453653 0.5317124 -1.6070535 1.0265344 -1.4986802 0.34753907
-1.8528105 -2.4092941 -3.0559392 -0.6218873 0.10968663 0.63445467 0.18874405 0.000508621
-0.7373502 -2.3782835 -0.17082551 0.57161427 -3.184645 0.5845212 -0.17218876 -0.0843168
-0.15738286 0.42247152 -1.983071 -2.205643 0.34577852 -3.0504105 -0.116404794 0.2952233
0.63897073 0.81073993 -0.9143256 -1.1854124 -0.7380452 -2.095059 -1.421126 -0.83210075
0.3610989 0.1014255 0.26974577 -0.4228875 -1.4465946 -0.4708558 -0.12565485 -2.7857792
-0.1253441 0.31968275 0.31208986 -1.5262794 -0.35236707 -1.7974774 0.5007759 -1.6788996
-0.39009058 -0.23057513 0.60855246 -0.009102596 -1.5161557 -0.7736757 -2.6221101 -0.6209468
0.6053967 -0.5141014 -0.14795849 0.4166415 -2.7673805 0.056854304 -1.8604931 -1.3670473
-0.6232017 -1.5299604 0.27341452 -1.708275 -0.49948597 0.80490565 0.02690377 -1.1546539
-0.27807796 -1.0196426 -1.7617084 0.75925845 -1.7890594 -0.6071378 -3.0291393 0.45323616
-2.7303963 -0.5156923 -0.25164607 -2.4096189 0.2468177 0.35648918 -0.318038 0.021857562
-2.5791266 -0.18216155 0.55466783 -1.8163608 0.24747333 -2.699287 0.05161369 0.65524656
-1.4896321 -3.8455262 0.33479095 -0.12905833 -0.6690507 0.73400384 0.48080397 -0.5938644
-0.18295354 -0.9431115 -0.30410647 -0.021172235 -1.2774707 -0.8125718 -0.044806555 -1.0913006
0.3387175 -0.1281112 -3.3972738 -0.039169848 0.17104082 -2.3690076 -3.1425326 0.2714272
-3.2941792 -1.6386564 -0.30902404 -0.11319669 0.15286128 0.46793804 -3.3443172 0.34055445
-0.46093738 -0.06708638 0.8279322 -2.9116983 0.45370176 -1.7921587 -0.39307958 -0.41815326
-0.86037344 -2.111362 0.2249223 -0.122300826 -0.72282517 0.15908128 -1.4513988 -0.31874225

l3.bias f4 [33]
00000000: d178 edbe 8efa 1c3e 2281 ccbd 3a9b e3be
00000010: 4daf c83e 3792 833e 7481 623e c0dd 5cbd
00000020: 1af8 8c3e e00b 4f3e 1b78 383d a8fa 8d3d
00000030: b32e 60be 5e51 6fbe 7040 d13d 8651 07be
00000040: 087b 8e3d bbab 96bd 6e50 463d e38d fcbe
00000050: c3c3 b6be da45 60be d17f 913e f211 8a3e
00000060: c64a 2a3e f946 44be 7d90 24be 37de 25bf
00000070: 5b1a 013f d595 fc3b 1209 023f 12aa 1b3f
00000080: e585 9a3d
-0.46381238 0.15329954 -0.09985568 -0.44454366 0.39196244 0.2569749 0.22119695 -0.053922415
0.27533036 0.20219374 0.045036417 0.069325745 -0.21892814 -0.23370883 0.102173686 -0.13214692
0.0695706 -0.07356974 0.048416547 -0.49327 -0.3569623 -0.21901646 0.2841783 0.26966816
0.16630086 -0.19167699 -0.16070743 -0.647922 0.5043084 0.007708291 0.5079509 0.6080638
0.075450696
